quickstart-pytorch/final_model.pt (torch, 251845 bytes, 10 tensors)

conv1.weight f4 [6, 3, 5, 5]
00000000: f027 203d 9f5c c73d 1141 993d 19bc 2b3d
00000010: 5941 af3d 047f e43d 0eee 0cbd 564b 523d
00000020: 15a5 863c d4bd 1dbd 16ad e7bd bdba 6dbd
00000030: 0b21 ad3d b26e 153d 7ea7 e33c a2ef 463d
00000040: cae9 83bd bf89 e53d 049c ae3d 29a3 d63d
00000050: 3cf9 36bc 7ab4 a13c e7fc a93d a38b 10bd
00000060: 13dc df3d eb47 f8bc 316a b13d 97dc 5cbd
00000070: aee2 3abd b2a0 ddbd 46b6 b3bc 5086 1dbd
00000080: 1bad 02bd b370 8cbd a7df 923d ea08 8ebd
00000090: ffb2 6abd f03d d9bd 3e63 6abd c3fa 97bd
000000a0: 97ff d13d fac7 513c 3b4b bf3d fea1 9d3d
000000b0: e829 debd 7937 42bd 990d a33d 8955 8cbc
000000c0: deda a4bd b438 ef3b 776c c23d 4005 e43d
000000d0: 0d5c b93d a66e 73bd 9c16 283a a0fa f63c
000000e0: 46ce 76bd e41d acbd 4361 6e3d c7ba 8a3b
000000f0: 6c73 88bc 074f 9abd 6346 d9bd d9e8 e5bd
00000100: 4099 313d 601b bc3c 4851 c93d 5213 c6bd
00000110: 6ace cc3d 24ae 8fbd c596 533d 2446 ffbc
00000120: 5c92 f3bc 82bc 45bd 9bcc 103c 860e afbd
00000130: d39f 87bd 07e3 4dbd b6af a63d 6bcb d53d
00000140: 9cb1 c6bb 3dda dcbc f696 343d cc46 59bc
00000150: 7182 bbbc b4f4 7cbd fb05 143d c974 b9bd
00000160: e376 5abd 361c 623d bb12 b2bd bc06 86bd
00000170: 9ed2 7e3d 4532 ae3d 75b9 703d f5ad 89bd
00000180: 4e5a 1d3d c71a 9cbd f685 9abb dbca bf3d
00000190: 8292 1ebd 8413 bf3d fcb3 383d ef0f 49ba
000001a0: c40e cf3b dfef a73d 5e2a 7e3d 5a1c 723c
000001b0: e87f c53d 4cf8 543d 3ef6 10bd d40d 7dbd
000001c0: d620 e43d 05ee 683d 1ff5 58bd 5ad9 643d
000001d0: d6ac aa3d 843b b23d e4b2 8e3c 4cc8 273d
000001e0: 88c2 4abd 06b3 ce3d 2c22 8bbd 1c53 d13d
000001f0: b871 f93a b6bd a4bb 398c d23d cab3 473d
00000200: 998a aabd 625b 59bd 87ba 733d 9767 07bc
00000210: c3f7 013d e046 7c3c 9828 e53c 3d04 c1bd
00000220: ae2c 9f3d 4828 173d 9c8c 4e3d e766 6d3d
00000230: dbca 763d 7e19 86bd f6ab da3d 0bdf cfbc
00000240: 9420 843d 05aa e4bd 7cd8 c43d 2e48 d3bd
00000250: f28c ecbc 606f ae3d 048e bbbd 8bd1 c4bd
00000260: e676 59bd 65bf 953d c184 b2bd f173 bcbd
00000270: e95c 0bbd e338 adbc 3f88 e8bd dac1 dcbd
00000280: 048a 46bd d31e 2bbd cd18 053d 2884 113d
00000290: 242f c13d dfa0 23bd f6e6 733d eb30 e03d
000002a0: b262 9f3d c78f 403d 66ed b7bd 8a9d 053d
000002b0: bbe5 9c3d 7aed b0bd 83c0 353d 53d4 2bbd
000002c0: 64e9 9fbd 35be 7f3d 691d 6c3d 7a21 bf3d
000002d0: 55cf 00bd 877d 8a3d 0174 c6bc 3669 193c
000002e0: 7ca1 bf3d 8643 d5bd 00f6 fbbc f9d2 d4bd
000002f0: 992c ab3d a4e1 4c3d 8394 dc3d 1d0e a0bc
00000300: e1d7 81bd 91ad d43d 206c 47bd 6c2b cb38
00000310: 0bd8 c5bd 4ddc 763d 7bc5 08bd 7577 ad3d
00000320: bc7b bcbd 41ef f9bc 6db2 9cbd 0563 8dbd
00000330: e276 c23d f012 bcbd 79c8 cd3d 1d89 5fbd
00000340: 8aa4 5f3c bfcc 793d 9156 cc3d eda2 20bd
00000350: 4199 5e3d a410 9c39 038e 113c bcd2 8b3d
00000360: b00c c1bd 5ba5 8dbd 3df3 d83d bdf2 47bd
00000370: c8df 67bd 9d69 c73d e444 623d ed2f 9e3c
00000380: 0dba e33d dcb2 9ebd f7a9 a23d 95c0 013b
00000390: 2319 0ebd cb79 81bd 10a0 2dbd 95b2 413d
000003a0: f970 65bc 37be 623d be33 9d3c e954 e63d
000003b0: 12bd b5bd 0275 633b f603 143b 5c4d c43d
000003c0: 44b5 27bc 3b83 38bd ee7c 0e3c 0aa4 eabd
000003d0: 1c39 94bc 5074 efbc efa1 d2bd 753c 223d
000003e0: 5ddd 8ebd 2525 e93d ea1c 403d 1b2b a6bd
000003f0: 0a66 5ebd 4019 e93d e3dc a8bd de26 7fbc
0.039100587 0.09734463 0.074831136 0.04192743 0.08557386 0.11157039 -0.034406714 0.051341377
0.01643614 -0.038511112 -0.113123104 -0.058039416 0.08453568 0.03648252 0.027789827 0.048568375
-0.06441076 0.112079136 0.08525851 0.10480339 -0.011167821 0.019739378 0.083001904 -0.035289418
0.10930648 -0.03030773 0.086628325 -0.05392131 -0.045626335 -0.10821666 -0.0219375 -0.03845817
-0.031903367 -0.06857433 0.071715645 -0.06935294 -0.05729961 -0.10607517 -0.05722355 -0.07420876
0.10253828 0.012804026 0.09340521 0.07696913 -0.10847837 -0.047416184 0.07961578 -0.01713063
-0.08049558 0.0073004607 0.09493344 0.11133814 0.090507604 -0.059431694 0.00064120605 0.030148804
-0.06025531 -0.08404139 0.058198225 0.0042336914 -0.0166566 -0.075346045 -0.10609128 -0.11226053
0.04335904 0.022962272 0.09829956 -0.09671654 0.10000308 -0.070156366 0.051657457 -0.031161375
-0.029732876 -0.04827548 0.008837844 -0.08547692 -0.06622281 -0.05026534 0.08138983 0.104391895
-0.006063653 -0.026959533 0.04408928 -0.013261508 -0.022889348 -0.061756805 0.036138516 -0.09055478
-0.053336035 0.055202685 -0.08694979 -0.06544253 0.06221258 0.08505682 0.058770616 -0.06722633
0.0384162 -0.07622295 -0.0047156764 0.093648635 -0.03871394 0.09329894 0.04509352 -0.0007669916
0.006318899 0.08200049 0.062052123 0.014777267 0.09643537 0.051994607 -0.035391085 -0.061780766
0.111390755 0.056867618 -0.05296814 0.055871345 0.08333747 0.08702758 0.017419286 0.040962502
-0.049501926 0.1009274 -0.06793627 0.1022093 0.0019031083 -0.005027498 0.102806516 0.048755445
-0.08327217 -0.053065665 0.05950406 -0.008264444 0.031730425 0.015397757 0.027973458 -0.094246365
0.07772194 0.03690365 0.050427064 0.057959463 0.06025205 -0.06547831 0.1067733 -0.02537491
0.06451526 -0.11165241 0.096116036 -0.103165016 -0.028875802 0.08517337 -0.09157947 -0.0961028
-0.053091906 0.07311896 -0.08716727 -0.092018016 -0.034024153 -0.02114529 -0.11354112 -0.10779162
-0.048471466 -0.041777443 0.032494355 0.035526425 0.094328195 -0.03994834 0.059546433 0.1094683
0.077824965 0.047012117 -0.08980827 0.032620944 0.07661005 -0.08639045 0.044373047 -0.041950535
-0.078081876 0.062437255 0.057645235 0.09332557 -0.031447727 0.06762224 -0.024225237 0.009363463
0.093569726 -0.1041327 -0.03075695 -0.10391802 0.08358116 0.050019875 0.10770514 -0.01953798
-0.06340004 0.10384668 -0.0486871 9.687882e-05 -0.096603476 0.06026869 -0.033391457 0.0847005
-0.09203288 -0.030509593 -0.076512195 -0.06903652 0.09495331 -0.091832995 0.10048003 -0.05457412
0.013650069 0.060986277 0.09977449 -0.039217878 0.054345373 0.00029767037 0.008883956 0.06827304
-0.09426248 -0.06916305 0.10593269 -0.048815478 -0.0566099 0.09736941 0.05524148 0.019309962
0.11119471 -0.077489585 0.079425745 0.0019798626 -0.03469194 -0.06322058 -0.042388976 0.04728945
-0.014003986 0.055357184 0.019189712 0.11246664 -0.08873953 0.0034707193 0.0022585369 0.09585068
-0.010236088 -0.045047026 0.008696778 -0.11457069 -0.018093638 -0.029230267 -0.10284793 0.039608438
-0.069758154 0.11384038 0.046902575 -0.081136905 -0.05429653 0.11381769 -0.08245256 -0.0155732315

conv1.bias f4 [6]
00000000: de3d 8c3d 5260 99bd 34e4 e9bd 66bd e6bd
00000010: 3047 9f3d 2706 e4bd
0.06847738 -0.07489075 -0.114204794 -0.11266594 0.0777725 -0.11133986

conv2.weight f4 [16, 6, 5, 5]
00000000: 98dc db3c a87a 97bc 84d4 8fbd f65e 5ebd
00000010: 145e 7abd ea66 a6ba bf5d 54bc 48b7 a13c
00000020: cc02 2abd 5d67 923c 19e9 8f3d 2cbb cb3c
00000030: 62c2 843d 6d24 f8ba ae56 4bbd 6e4b 65bd
00000040: 5104 28bd 278c 13bc cee2 3c3c 3d47 6a3d
00000050: 2048 763c d368 463d bd8f 423d 5cae 51bd
00000060: 5063 0f3d 5302 243d 0e43 313d 3cec 8ebd
00000070: d030 ae3c 40c3 6cbd ee0d 4d3d 0eaf 96bc
00000080: 9a99 46bd 8ee1 733d 4529 0b3d 1a4f 0bbd
00000090: f4fa 773d e811 493a 9e05 893c 89a5 af3b
000000a0: aee5 503d 7e55 863d a3e8 133d e7c9 1bbc
000000b0: 464a 66bd 02dc 753d 2258 673d 5206 203d
000000c0: c790 efbc 749a 9c3d 68dd 83bb adbd 4c3d
000000d0: 3f61 99bb 3815 963d 7977 f4bc 06fd 1fbd
000000e0: 09c3 2c3d 104c e2bc 710a a93c e1b5 4dbd
000000f0: 1707 bfbc c060 713d b3d5 0ebc 68bb a5bd
00000100: 435c 3dbd fa50 a6bd 6340 9ebc 9d32 2cbd
00000110: afe3 a5bd 91aa 22bd 0182 4a3d 0434 4b3d
00000120: beb3 663d b5d6 ddbc 48d8 453c 448b 843d
00000130: 5080 d13c 6632 d239 c705 593d 7aab 01bd
00000140: 17dc 25bd 4801 3d3d 513d 70bd 7a0e 893d
00000150: 7a72 5fbd ce1e 86bd 9086 20bd 9859 7ebd
00000160: 3e5a 6d3d c0b5 56bd b649 2c3d 2164 9bbd
00000170: 3e6a 7ebd 9c35 50bd d0cd 373d 9b31 27bd
00000180: 20e6 2bbd 075a 833c bc66 083d 1211 4e3c
00000190: a2d8 35bc c896 d9bb eb74 1bbd 57e7 a0bd
000001a0: a835 43bd 4ad5 a3bd 12c8 483c 4e0d 223c
000001b0: 001d 653d 2164 053d ea6d 5bbd cb2f 933c
000001c0: 9638 273d d880 b23c d8d2 a33d 2a60 8c3c
000001d0: 74ca 6ebc cfe4 10bd c30d 4ebd 93c8 c33c
000001e0: ffc0 8c3c 89f1 4e3c df4c 163d a84b 803d
000001f0: f736 273b f619 99bd d219 96bd dabc 88bd
00000200: 2476 503d 2a62 ddbc 1264 983c de8a cd3c
00000210: 346e cebc fbdd c43c dd9b 443d f84a 093d
00000220: e284 94bd daa4 2d3d 017c cfbc 1e32 223d
00000230: c4e3 0b3d 33c7 4f3d cfee bcbc 70bc 933d
00000240: 8637 23bc 1e12 3e3d e9f5 32bc 0848 8e3d
00000250: ccab 0b3d 442a 863d 5748 a03d d800 983d
00000260: ec91 293d 3370 bf3c 0e54 953d 2f97 1d3c
00000270: 3a04 93bd 3385 88bc b1a7 68bd b34d 623c
00000280: a203 a83c 33d2 8f3c 3ba3 8dbd 1015 b1bc
00000290: bacf 793d 0ff0 80bd 32da 813d 50b6 623d
000002a0: 7beb 4cbd 6e9e 2b3c c4a1 7c3d db44 193d
000002b0: 2296 43bd d333 6d3d 080b 27bc 72b4 a8bc
000002c0: b5b6 f93b 0a54 513d d9b8 2e3d 0839 233b
000002d0: 0468 e4bc 2d63 1d3b 5132 f13c b349 4b3b
000002e0: 964c c53c e228 84bd 84a8 933d c2e7 253c
000002f0: 392a fcbc 40e8 843d 9cdb 9fbc 462d 89bc
00000300: 6615 66bd 54df 8c3c a401 983d 4e0f c9bb
00000310: 1220 8bbb 1c28 493c 072b b03c 1de0 523c
00000320: 64b3 49bd f27c 93bc 76c0 883c 51de 02bd
00000330: 232f 8bbc 34ee 8a3d fed9 823d 3cc7 95bd
00000340: 0b25 503d bca5 5dbc edc2 68bd 3cf3 833d
00000350: 6265 e9bc f055 933d 0d13 98bb 8be2 6ebd
00000360: db38 9a3d b44d 3bbc 5d22 533d 4df8 0f3d
00000370: b0a7 943d 86d8 23bd a859 7abd 1ffd 643d
00000380: 2ac3 e63b afc2 85bc 3a59 36bd e8a6 2c3d
00000390: 202a 7b39 f8a5 333d dc03 a0bd 88ac 8a3d
000003a0: 6d09 94bd b3cc 84bc 9015 053d 4842 803d
000003b0: 2a79 ae3c 4f6f 3abd 87a5 303d 3f21 763d
000003c0: 1fb2 203c 074a 55bc 20fb 07bd e242 1d3d
000003d0: 175e 893d 068e 3a3d 66a9 4b3d 10f0 46bd
000003e0: 743f a23c 532d 383d a4e6 79bd a275 11bd
000003f0: e945 a3bc e4ee ecbc ed87 cbba 27cd e13c
0.026838586 -0.018491104 -0.07022956 -0.05428978 -0.061124876 -0.0012695466 -0.012961804 0.019740716
-0.041506574 0.017871553 0.07026882 0.024869524 0.06482388 -0.0018931754 -0.04964321 -0.05598014
-0.04101974 -0.009005583 0.011528684 0.057196844 0.015031844 0.048439812 0.04750036 -0.051191673
0.03500682 0.04004128 0.04327684 -0.06978652 0.02126351 -0.057803392 0.050062113 -0.01839402
-0.04848633 0.059541278 0.033974905 -0.034010984 0.060542062 0.000767021 0.016726311 0.0053603095
0.05100029 0.06559275 0.03611053 -0.0095085865 -0.056223176 0.06002427 0.056480534 0.039068528
-0.02924384 0.07646647 -0.0040241964 0.049985576 -0.004680782 0.07328266 -0.029842125 -0.03905966
0.042178188 -0.02762416 0.020634862 -0.05022228 -0.02331881 0.05893016 -0.008717942 -0.080923855
-0.046230566 -0.08120914 -0.019317811 -0.042040456 -0.08100068 -0.039713446 0.049440388 0.049610153
0.05632376 -0.02707992 0.012075491 0.06471875 0.02557388 0.0004009187 0.052984025 -0.031657673
-0.040493097 0.0461438 -0.058652226 0.06692214 -0.054552533 -0.06548844 -0.03919083 -0.062097162
0.05794739 -0.052419424 0.042062484 -0.075874574 -0.06211304 -0.050832376 0.044874012 -0.04081879
-0.04196751 0.01603414 0.0333011 0.012577312 -0.011099013 -0.006640289 -0.0379533 -0.078566246
-0.047658592 -0.07999666 0.012254732 0.009890867 0.05593586 0.032566193 -0.05357162 0.017967125
0.04082545 0.021789953 0.079992 0.017135698 -0.014574636 -0.03537446 -0.050306093 0.023899352
0.017181871 0.012630829 0.036694404 0.0626443 0.002551494 -0.07475655 -0.073291436 -0.066766456
0.050893918 -0.027024347 0.018602405 0.025090631 -0.025199033 0.02403163 0.048000205 0.03351876
-0.07251908 0.042393543 -0.025327684 0.039598577 0.03415276 0.05072708 -0.023063092 0.07213676
-0.009961968 0.046403997 -0.010922887 0.069473326 0.034099385 0.0655103 0.07826298 0.07422036
0.041398928 0.02336893 0.07291423 0.0096185645 -0.071785405 -0.016665077 -0.056800548 0.01381247
0.020509545 0.017556285 -0.06915899 -0.021616489 0.06098912 -0.062957875 0.063404456 0.055349648
-0.05002926 0.010474784 0.06167771 0.03741918 -0.0477506 0.05791075 -0.010195501 -0.020593856
0.0076206573 0.051105537 0.042656753 0.002490582 -0.02788163 0.0024015412 0.029442938 0.003101927
0.02408437 -0.0645311 0.07209876 0.010126056 -0.030781852 0.06489611 -0.019513898 -0.01674522
-0.05617275 0.017196335 0.07422188 -0.0061358577 -0.0042457664 0.012277629 0.021504892 0.012870816
-0.049243346 -0.018003915 0.016693335 -0.0319503 -0.01699025 0.06783715 0.06389235 -0.073133916
0.050816577 -0.013528284 -0.05682652 0.06442878 -0.028490726 0.07194126 -0.004640943 -0.058321517
0.075303756 -0.0114321 0.051546443 0.035148907 0.07258546 -0.040001415 -0.06112066 0.055905458
0.0070423083 -0.016328184 -0.044518687 0.04215136 0.00023952918 0.043859452 -0.07813236 0.06771189
-0.0722836 -0.01621089 0.032491267 0.06262642 0.02129801 -0.04551631 0.04312661 0.0600903
0.009808092 -0.013018138 -0.033198476 0.038393863 0.06707399 0.0455456 0.049722098 -0.048568785
0.019805647 0.0449651 -0.06101097 -0.035512574 -0.019930797 -0.028922506 -0.001552818 0.027563645

conv2.bias f4 [16]
00000000: 1bb9 57bc 1669 3cbd 46ea 7dbd f33f 2c3d
00000010: c469 be3c 505d a2bd 80ea 3a3c 9ee0 49bd
00000020: bdcc 06bc dc39 0ebd 16eb 78bd 1cd2 8e3d
00000030: 7f8d 54bc 7793 48bd 57d7 58bd de29 f1bc
-0.013166691 -0.045998655 -0.061991 0.042053174 0.023243792 -0.07927954 0.011408448 -0.049286477
-0.008227524 -0.034723148 -0.06077107 0.06973669 -0.012973188 -0.04896876 -0.05293974 -0.02943891

fc1.weight f4 [120, 400]
00000000: 6e1f 2e3c 9388 bb3c 00a3 cbbb ff57 11bd
00000010: ca6e cd3c f31d 23bc de42 c63b 9043 a13b
00000020: 006b 3d3b bd3a 353d da1b fbbc 0365 2c3d
00000030: c887 183d 1a93 9e3c 950b 00bd abe3 283d
00000040: fdff 793c 02ce e7bc ea33 8a3c 401f 34bd
00000050: 7d67 f6bc 7748 353d e90a 563c b169 dc3c
00000060: 3f1d e5bc 526b 22bd 0aaa 273d 55f5 aebc
00000070: 1a2b b2bb 7b93 95bc aeb7 e23c 323a e6bc
00000080: 40be 3abd 42b6 f03c 1a2c 2f3d 74a0 c8bc
00000090: 6d05 4a3c 9a74 b63a 262d 483d a744 88bb
000000a0: e294 1c3d 900e d4bc 8fd2 e93c 1012 b03c
000000b0: e89c 143b 66c2 f7bc 8c6f d5bc 6de1 a03c
000000c0: 33e0 4ebc cd61 17bb 3489 a53c 0df6 dcbc
000000d0: 401f da3c 34e8 9dba 9b33 bfbb c09a 113c
000000e0: 58bb 43bd 6ed2 de3c e7eb 1c3c 6a34 1c3d
000000f0: 38c8 12bd e35c 003d 00a8 e1b9 36a1 76bb
00000100: 81ec 2bbc faf1 273d 3253 7bb8 422e b33c
00000110: cd10 d5bb 50a6 4abd b511 be3c 7006 433c
00000120: 8e09 34bc 9dc1 de3b b0cf 10bd 7f66 26bd
00000130: 8e85 3dbd 56aa 18bc 7690 40bc 9702 efbc
00000140: 20a2 133c cd97 14bd 4dcf 743c e8d3 253d
00000150: e85a 5b3c f455 3c3d 5ba4 b33c c008 a93b
00000160: 087c 243c 3ebf 8abc 83a8 d73c 2ee8 d2bc
00000170: 2509 47bd 6991 1abd 2d33 3e3c 8085 3d3c
00000180: 80f1 133d dca2 11bd 749a 053d cefb 283d
00000190: 10e8 053d c0d2 033d b5a9 bb3c b8f8 b23c
000001a0: 5884 0abd 00b0 a438 2dbe a53c 5dfd 8cbc
000001b0: 7b62 233d bcf2 ffbc 0870 59bc 29b5 fb3c
000001c0: 602c 86bc 02ee 31bd 17ba 4a3d 737a 353c
000001d0: d0c9 b0bc 337e 043d 5596 343d c15e a4bb
000001e0: 002a 6fba 6968 703c 32c9 7d3b 36b5 59bb
000001f0: db60 123d 1d6a 45bc 00ea e23b f062 4b3d
00000200: c89f 26bd 429a 4a3d 2816 2a3d 8062 d9bb
00000210: ce62 fe3c b3a8 22bb 9a03 20bc 7780 ffbc
00000220: 0e4a 943b ab73 44bd 3352 4b3b c0c1 febb
00000230: 69c3 58bb 28ae a0bb 964e 59bc f2af 293d
00000240: 9784 f5bc fb5d 243d 4838 233d 07c5 2ebd
00000250: 258c 213d 2cd0 213d 00d0 a338 280e b3bc
00000260: 63a1 ea3c 32f9 adbc c2e9 f23c 05c9 223d
00000270: 049b 0a3d f33e 8bbc 0d1f 3e3d 87eb 46bd
00000280: 9adc b83c 8aeb c43c c7f7 353d 67d8 0abb
00000290: 800b 46bd b43f fdbc a1cb 08bc 3bb3 09bc
000002a0: 989c 1bbd 96bd d43c c2e7 253d fc29 35bd
000002b0: af75 2fbd 4c7b 03bd 61f9 0b3d 04fd c7bb
000002c0: 3aeb 31bd b28f 7fbc 9813 1bbd 6a58 b53c
000002d0: 801d 26bb 62e2 3cbc c3ef c6bb aa17 1fbd
000002e0: cd41 84bb fafe 2fbd 04ae f5ba 3401 c1bc
000002f0: 3735 ea3c 43dc 8bbc 26ef 763c 1308 0e3c
00000300: 0084 ab3a 104d b23c a3b7 1a3d 6d65 40bd
00000310: 67ef ed3a 8a05 b03c 1000 32bd aed7 17bd
00000320: 04f6 033d abbc 9b3c d8c2 a63c 033c c93c
00000330: 5519 0a3d be30 88bc 5c50 3ebd c30f 3c3d
00000340: 0671 353d ada0 d53c c0f4 733c fbf2 af3c
00000350: f40c 0fbd 901d 1b3d 9324 cdbc d2e4 bfbc
00000360: 7a0f 61bc 60d5 5f3c 15e9 44bd 84cf 923c
00000370: bd9e cebc dbed 01bd 35b7 e33b 1178 16bd
00000380: a4e6 dd3c b14c 25bd 1a91 3cbb 138d 01bd
00000390: c005 b9bc 4b0d 33bd ecb2 203d 8bdf 1abd
000003a0: ac04 5e3c d012 08bd 6afe 44bd 4a00 08bd
000003b0: d489 8fbc b3a3 263b 4d21 3d3d 1edc 253d
000003c0: 7e3c 433c 8a17 87bc 67b6 38ba fabf aa3c
000003d0: 617b 27bd e786 a9bc 730f 30bd 103b 2b3d
000003e0: 67e8 afba 7de4 3dbd f59f 21bc e320 68bc
000003f0: f4d1 093d 5c5b 03bd 5ac2 463d b465 b5bc
0.010627611 0.022892272 -0.0062144995 -0.03548431 0.025077242 -0.009955871 0.0060504517 0.004921384
0.0028902888 0.04424547 -0.03065293 0.04208852 0.037238866 0.019357253 -0.031261045 0.041232746
0.015258786 -0.028296474 0.016870458 -0.043975115 -0.030078644 0.04425856 0.013064125 0.026905866
-0.027968047 -0.03965313 0.040933646 -0.021357218 -0.005437267 -0.0182588 0.027675476 -0.028103922
-0.045591593 0.029383782 0.042766668 -0.024490573 0.012330395 0.0013920248 0.048871182 -0.0041585746
0.038227923 -0.02588585 0.028542785 0.021492988 0.0022676531 -0.030244064 -0.026054166 0.019638741
-0.012626695 -0.0023099065 0.020207025 -0.026972795 0.02662623 -0.0012047351 -0.0058350093 0.008886993
-0.047786087 0.02719995 0.009577728 0.038135923 -0.035835475 0.031338584 -0.00043040514 -0.003763271
-0.010493399 0.04100225 -5.9920545e-05 0.021872643 -0.006502247 -0.049475014 0.023201803 0.01190339
-0.010988606 0.006797983 -0.035354316 -0.04062509 -0.046269946 -0.009317955 -0.011753192 -0.02917604
0.009010822 -0.03627758 0.0149420025 0.040485293 0.013388373 0.04598041 0.021928957 0.005158514
0.010039337 -0.016936895 0.02632547 -0.025745478 -0.048592705 -0.03773633 0.011608881 0.011567473
0.036118984 -0.035555705 0.032618 0.041255765 0.032692015 0.03218341 0.022908071 0.021847114
-0.03381762 7.852912e-05 0.020232284 -0.017210657 0.03988884 -0.031243674 -0.013271339 0.030726032
-0.016378582 -0.043439873 0.049493875 0.011076557 -0.021580607 0.032346915 0.04408868 -0.0050161784
-0.0009123385 0.014673331 0.0038724658 -0.0033219582 0.0357369 -0.012049225 0.0069248676 0.0496549
-0.040679723 0.049463518 0.041525036 -0.0066340566 0.031052973 -0.002481979 -0.009766484 -0.031189186
0.0045254296 -0.047961872 0.0031024336 -0.0077745616 -0.0033075458 -0.0049035735 -0.013263365 0.04142756
-0.02997045 0.04012869 0.039848596 -0.04266837 0.039440293 0.03950517 7.811189e-05 -0.021857336
0.028641408 -0.02123699 0.02965248 0.03974249 0.03383924 -0.01699779 0.04641633 -0.04856446
0.022566129 0.024038095 0.044425752 -0.0021186115 -0.04835081 -0.030914165 -0.00834933 -0.008404548
-0.037991136 0.025969308 0.040504225 -0.044229493 -0.04283684 -0.032100007 0.034173373 -0.00610316
-0.04343722 -0.0155982245 -0.037860483 0.022136886 -0.0025347173 -0.011528583 -0.0060710623 -0.038840927
-0.0040361644 -0.042967774 -0.0018743877 -0.023560144 0.028589828 -0.017072802 0.015071666 0.008668917
0.0013085604 0.021765262 0.037772786 -0.046971727 0.0018153012 0.021487016 -0.04345709 -0.037070923
0.03221704 0.019010862 0.02035658 0.024564749 0.033715565 -0.016624805 -0.046463355 0.04591347
0.04429724 0.026077593 0.014889896 0.021478167 -0.034924462 0.03786999 -0.025041854 -0.02342454
-0.0137366 0.013661712 -0.048073847 0.017921217 -0.025222177 -0.031720977 0.00694933 -0.036735598
0.027087517 -0.04035634 -0.002877301 -0.03162868 -0.02258575 -0.04371385 0.039233133 -0.037810843
0.013550919 -0.033221066 -0.04809419 -0.0332034 -0.017521776 0.0025427162 0.046174336 0.040493123
0.011916278 -0.016490716 -0.0007046223 0.020843495 -0.040889148 -0.02069421 -0.042983484 0.041804373
-0.0013420702 -0.04636048 -0.009864797 -0.014167997 0.033647493 -0.03206955 0.04852519 -0.022143222

fc1.bias f4 [120]
00000000: 6247 15bd a7e2 9d3b 8ff9 423d 4eb8 47bd
00000010: d2f6 2b3d 6490 38bd 6a34 183d d576 45bd
00000020: ae99 143c 0aea 813c 8ae7 33bd 1aa1 ac3c
00000030: ca1e e1bc b469 423c 6ffb 083d 4f34 a43c
00000040: f483 4c3d 70fc 163d 806d 9c3b b011 45bd
00000050: 80a0 a0bb fe19 aa3c ced6 a63b e615 c8bc
00000060: edc9 1cbc ce08 32ba 8769 8ebc cd5f 0abc
00000070: e65f cfbb 875f a0bc 2264 1e3d 1a74 08bb
00000080: 3496 0d3d 9a2c d6bc 0085 f6ba 7a9e 773c
00000090: 3486 ee3c 9259 2ebd 68db 00bd ad62 ec3c
000000a0: 8af6 d53c aa3c e5bc 3c3e 48bd ade7 17bd
000000b0: 393f eabc 5938 d7bc 9df2 453c af44 79bc
000000c0: f28d babc 0044 1a3d 38d1 69bc 3510 b3ba
000000d0: 347e 1f3d d41d b0bc a20a 3b3d e04b ec3c
000000e0: d4e1 45bd 5b98 8c3b 733f 40bd 1039 eb3c
000000f0: 90ff 3f3d 69e6 feb8 2e4f 8b3c 7b41 bb3c
00000100: 24db d8bc 4dff 9cbb 8132 41bb 6d6e db3c
00000110: d009 a63c 8185 4a3c 6e9c 72bc af47 13bd
00000120: 677e 49bc dc48 edbc 639d 643c f29f 263d
00000130: 8a03 10bd 008d 1b3d e824 25bd 80a7 ecbb
00000140: 3484 223b 7570 ba3c 5cf0 553c ddd4 57bc
00000150: ed68 2abd ba62 1bbd 02dc 48bc ae03 d0bc
00000160: 04e0 ecbc dcc2 e6bb 70fe 273d 3073 0d3d
00000170: da93 d2bc 0dc1 4b3d f829 eb3b 7097 afbc
00000180: aa38 12bd f23a 063d 2e99 44bd c231 333d
00000190: 1ace 13bb 2878 043d 6cfe 733b 00ee f23c
000001a0: a76d 8c3c 8efb e1bc ad4f f23c a861 ad3b
000001b0: ba00 ec3c 4e87 74bc 5b20 96bc c395 f53c
000001c0: 77c5 be3c a878 ecbb 7a7a 48bd fd33 233d
000001d0: e5af 3a3d 8757 0fbd 7ddb b3bc dc14 2f3d
-0.03644503 0.004818279 0.04760128 -0.04875975 0.041983433 -0.045059577 0.03715936 -0.04820903
0.009069843 0.015858669 -0.043921985 0.021072913 -0.027480502 0.011866022 0.03344291 0.020044474
0.049930528 0.036861837 0.0047737956 -0.04811257 -0.0049019456 0.020764347 0.0050915247 -0.024424504
-0.009569627 -0.0006791473 -0.017384304 -0.008445692 -0.0063285707 -0.019576801 0.038669713 -0.0020821155
0.034567073 -0.026144315 -0.0018807948 0.015113467 0.029116727 -0.04256589 -0.031459242 0.028855646
0.026118536 -0.027983028 -0.048887476 -0.037086178 -0.0285946 -0.026271986 0.012081769 -0.015214129
-0.022772763 0.037662506 -0.014271073 -0.0013661446 0.038938716 -0.021498598 0.045664437 0.028844774
-0.04831107 0.004290623 -0.04693551 0.028713733 0.046874583 -0.00012154581 0.01700553 0.022858372
-0.026471682 -0.0047911764 -0.0029479566 0.026786054 0.02026835 0.012360931 -0.014807804 -0.035957035
-0.012298203 -0.028965406 0.01395354 0.04067988 -0.035159625 0.037976265 -0.0403184 -0.007222116
0.0024798037 0.022758702 0.013057794 -0.013173309 -0.04160397 -0.03793595 -0.012259485 -0.02539238
-0.028915413 -0.007042272 0.041014135 0.03453368 -0.025705267 0.049744654 0.007176634 -0.021434516
-0.03569857 0.03277106 -0.047997646 0.043748625 -0.0022553266 0.032341152 0.0037230505 0.029654503
0.01714213 -0.027585771 0.029579008 0.0052911825 0.02880894 -0.014924837 -0.018325975 0.029978639
0.023287518 -0.007216532 -0.048944928 0.0398445 0.045577902 -0.034995582 -0.021955246 0.042744502

fc2.weight f4 [84, 120]
00000000: 1a0b 9bbc c423 abbc 273e 3abc 67e7 463d
00000010: 16e9 47bd f437 47bd 3453 15bd bb91 70bd
00000020: 3781 373d 7a62 85bd 2a93 02bd 56ce a53d
00000030: 4499 5cbc e4f2 64bd 7e6b 78bc 7179 b8bc
00000040: 26b1 94bd 9377 89bd 1075 19bd b488 9fbc
00000050: 94ec f53c bd68 2ebd 7ec2 6b3d 3619 7c3d
00000060: 36be 4b3d 7406 e83c db7b 5f3c e43f 6cbd
00000070: c018 143d 1dfc 2039 25ec f83b d30d 353d
00000080: 48d7 f23c da75 9dbd b334 80bc 5c89 98bd
00000090: c0f6 303d 7fc1 26ba fee3 603d cd59 043c
000000a0: 64a6 47bd ca3b 0c3d 708e 78bd 370f 0abc
000000b0: 8762 aabb 9208 e9bb 44f8 ab3d 5c5e a33b
000000c0: f0dd 9dbc ee14 f7bb 476c a93d 1f20 34bc
000000d0: 7045 77bc a82f 1c3c 8f2a 5fbd 3271 d4ba
000000e0: 926d 8bbc a870 933c 8b21 9fbd e0a5 55bd
000000f0: 98ec 88bd 3e00 85bd 5253 ebbc a5e3 233d
00000100: 5034 b03d 6606 44bd 4aed 9bba 6620 a13d
00000110: d74a f2bb ca5a 6a3b aee8 85bd 6466 8d3c
00000120: a61d b1bc a611 a6bd 8fc2 dcbb 45fe 9e3c
00000130: 527c ecbc e252 913d 6605 1fbd c6fc 66bd
00000140: 400b 7f3d dd15 94bd 7b48 973d efa0 b73d
00000150: 0f74 843d 6c3b ae3c 3948 433d 5b76 f73c
00000160: 12ae 5dbd 297a 8abd 3427 3abd f6f4 5ebd
00000170: 2636 51bb ccd6 343d 02e6 7dbd 1c71 1dbd
00000180: f993 a93d 1465 d1bc 8eec b53d 9b64 9cbc
00000190: 7fd1 9bbd eadc 973c aee8 85bc c471 b2bd
000001a0: 70b0 5b3d 5e92 80bd 37b7 6dbd 0126 af3d
000001b0: 849b 09bd 6a40 973c ece8 e73b 87aa 4abc
000001c0: a30a 8e3d 1ea5 a43d 816a 56bd bd5a 69bd
000001d0: cdfb aa3d fc74 753d 8e21 043d 6662 5b3d
000001e0: bd9a 963d 4bdf 88bc 4ed5 3dbd 13ea a0bd
000001f0: f19c 5bbd b83a fe3c 979c 9ebd 0199 be3c
00000200: 7511 1fbd b1bf 3b3d 9774 72bd 49a5 253d
00000210: 8835 babc c7a5 1fbd 9a69 413d 78a2 2cbd
00000220: 456d a0bc 3827 5c3d b005 53bb b420 15bd
00000230: ffcf a5bc 9736 a73d 0e26 a0bd ae6a 623d
00000240: b18b a53d c5f0 b9bd 72f0 7e3a a9df b0bc
00000250: 90b6 a33d 8663 e5ba f51e acbd b73b 423c
00000260: b400 e1bc acd1 7dbd 63ce 89bd 3954 a5bd
00000270: 0677 57bd 785f 70bd f97c f7bc 2d95 143d
00000280: 0a73 60bd 2407 b0bc 2aee 97bd f9b1 53bd
00000290: ed6d b53c d2b7 3fbd fc6c 253d 175e 4fbd
000002a0: 5ce8 7dbd 1536 53bd ce52 953d 0160 243d
000002b0: a90d b0bd e9de 28bd 28c3 4fbd 4f26 973d
000002c0: 93df 8a3b 21d2 423d da8e abbd 3137 193d
000002d0: 17b3 b1bd e2c9 91bd c686 b03d e8f2 99bd
000002e0: 470e aebd 9faf 1ebc 3460 313d f0fb 8fbd
000002f0: a440 67bd 63c3 fabc 349e 8abd 0707 b73d
00000300: d06b 8ebd 8f46 d5bc 23c0 c23c fd0e bc3a
00000310: a351 a93d 5647 6bbd 27ff 00bc c41c 39bd
00000320: b918 85bc 5de1 9b3d 56a1 823c 20bc 91bc
00000330: 7031 96bc 4781 9abd cd88 053d 672b 1d3d
00000340: 602b 743d 5ed4 9bbb 5cb6 9e3d b374 363d
00000350: 2814 a73d a29e 43bd 8c3b 013b e7ff 3abd
00000360: 7667 62bd ad02 ad3d af96 3f3d 0ddb 2c3d
00000370: 2cb1 2b3d 55a1 7cbd ec8a 19bd 3714 e3bc
00000380: 6d9f 6d3d 5497 943d b8d7 c43c dd56 a33d
00000390: 5621 63bd 3c5e 893c 8533 99bd 2c25 1a3d
000003a0: da7b 023d 0070 96bd e67d d2bc b01b 58bd
000003b0: b3c0 b13b 438e 54bd c5cb 813b 9529 f63c
000003c0: be2c aabd ccfc 713d d521 b2bc 93bd 9dbb
000003d0: 9e3a 88bd a665 4ebc 37aa ac3c 77a3 6ebd
000003e0: 1618 9abd 62fc e73c 2a26 17bd 4a3e 37bc
000003f0: cd4e a83d 5bf4 febb 123e 88bd 2809 6bbb
-0.018926192 -0.020891078 -0.011367357 0.048560526 -0.048806272 -0.048637345 -0.0364563 -0.05873273
0.044800963 -0.065129235 -0.031878628 0.08095996 -0.013464276 -0.0558957 -0.015162347 -0.022518845
-0.07260351 -0.0671226 -0.037465155 -0.019474365 0.030020036 -0.042580355 0.05755853 0.06154748
0.049741946 0.02832339 0.013640369 -0.05767812 0.036156416 0.00015352709 0.00759651 0.044202637
0.02964367 -0.07688494 -0.015650129 -0.07448074 0.04320407 -0.00063612306 0.05490493 0.008078051
-0.048742667 0.034236707 -0.060682714 -0.008426479 -0.0051997337 -0.0071116174 0.08396962 0.0049856137
-0.019270867 -0.007540337 0.082726054 -0.010993986 -0.015092239 0.0095328465 -0.054483946 -0.0016208051
-0.01702002 0.017998055 -0.0777007 -0.052160144 -0.06685752 -0.06494187 -0.028726254 0.04001202
0.08603728 -0.047857665 -0.0011896279 0.07867508 -0.0073941755 0.003575968 -0.06538521 0.017260738
-0.021620583 -0.08108835 -0.0067370604 0.019408355 -0.028867874 0.07095887 -0.038823508 -0.056393407
0.06226659 -0.072307326 0.073868714 0.089662425 0.06467449 0.021268569 0.0476763 0.030207803
-0.054121085 -0.067615815 -0.045447543 -0.05443283 -0.0031923144 0.04415016 -0.06198693 -0.038437948
0.08280177 -0.025560893 0.0888301 -0.019090941 -0.076083176 0.018537957 -0.016346302 -0.08713105
0.05363506 -0.06277917 -0.058036055 0.085521705 -0.033595577 0.018463332 0.007077327 -0.012369758
0.069356225 0.08039306 -0.052347664 -0.0569713 0.083488084 0.059926018 0.032258563 0.053560637
0.07353733 -0.016708037 -0.046346 -0.07857146 -0.053616468 0.031033859 -0.07744711 0.023266317
-0.038835008 0.045837108 -0.05919322 0.04044083 -0.022730604 -0.038976457 0.04721985 -0.04214713
-0.019583354 0.05374834 -0.0032199435 -0.03640814 -0.020240782 0.08164709 -0.07819758 0.05527752
0.08083285 -0.09079126 0.000972516 -0.021591024 0.079938054 -0.0017500974 -0.08404342 0.011855057
-0.027466156 -0.061967537 -0.06728818 -0.08072705 -0.052603744 -0.058684796 -0.030210959 0.036275078
-0.05479721 -0.02148778 -0.07418473 -0.0516834 0.022147143 -0.046806164 0.04038714 -0.05062684
-0.061989173 -0.05156525 0.07291184 0.04013062 -0.085963555 -0.04122821 -0.050723225 0.07380354
0.004238078 0.047563676 -0.08376856 0.03740615 -0.08676737 -0.07118584 0.08619456 -0.07517034
-0.08498817 -0.009685426 0.043304637 -0.07030475 -0.05645813 -0.030610746 -0.06768456 0.08936887
-0.06954157 -0.026034622 0.023773259 0.0014347729 0.08267524 -0.057441078 -0.007873333 -0.04519345
-0.01624714 0.07611344 0.015946072 -0.0177899 -0.01833412 -0.07544189 0.032601167 0.03837147
0.059611678 -0.0047555408 0.07749626 0.044544887 0.081581414 -0.047758706 0.001971933 -0.045654204
-0.05527445 0.08447776 0.046774562 0.04220109 0.04191701 -0.061677296 -0.037486 -0.0277196
0.05801337 0.07255426 0.024028644 0.07975552 -0.055451714 0.016768567 -0.0748053 0.037633106
0.031856395 -0.07345581 -0.025694799 -0.05276078 0.005424583 -0.051893484 0.003961059 0.030049125
-0.08309315 0.059078977 -0.021744648 -0.004813859 -0.06651805 -0.012597477 0.021077259 -0.05826136
-0.07524125 0.028318588 -0.03690163 -0.011184284 0.08218155 -0.0077805943 -0.06652464 -0.0035863612

fc2.bias f4 [84]
00000000: 2a7b 87bc e8ea 92bc fbb0 cabc 7ab6 9d3c
00000010: d976 46bc c7af f0bc 1c6f a6bd 3037 b9bd
00000020: c0c6 883d 00e6 183c 1739 05bc 08ce 68bd
00000030: 01b6 a83d e7ec 13bd 8a6a 4b3d f1c6 aabb
00000040: 265a 953d def3 b7bc 203b 713d c05b 1dbd
00000050: 8c50 90bc fcb9 97bd de77 f7bb 4ad4 423d
00000060: f163 ab3d ac91 a43d 3521 183d 8faf 7b3d
00000070: 160b 263d 3ac3 fd3c 1c50 18bd 37d1 74bd
00000080: adc8 8c3d a46f c9bc c432 29bd 7d18 b0bd
00000090: 7ff2 8e3d a0a8 653c e811 293d 33b6 1c3d
000000a0: ce12 173d 5c41 473d 48c6 8b3c 21ca bcbc
000000b0: 7ff4 aa3b 91e5 a9bd 33bb 4bbc 02fd 5e3c
000000c0: a0c5 a6bd 9014 b7bd 26bc 723d 0b2c 763d
000000d0: 0510 cc3c 8ca8 243d dd8e 943d c174 6b3d
000000e0: e6f9 03bc 04d3 e3bc 5a45 ed3a 01e2 abbc
000000f0: e094 053d 7591 95bd 640f 6cbd 685e 86bd
00000100: 245b d9bb dc79 4d3d 807b a9bc 15b9 acbd
00000110: 8c77 a43c d666 5dbd 76d9 b6bd 2fca 99bd
00000120: daa1 35bd a54c 22bd 23d7 af3d 1550 33bd
00000130: cf9d 4bbd 34ca 34bd f833 1c3d 7051 74bd
00000140: dff2 20bd 7152 45bd 7284 cc3c c989 88bc
-0.016538221 -0.017934278 -0.024742594 0.01925205 -0.012113296 -0.029380692 -0.08126661 -0.09043729
0.066785336 0.00933218 -0.008131287 -0.05683711 0.082378395 -0.0361146 0.04966215 -0.005211704
0.07292585 -0.022455152 0.058894277 -0.038417578 -0.017616533 -0.074085206 -0.007552131 0.047565736
0.08368672 0.08035597 0.037141044 0.061446723 0.040537916 0.03097688 -0.037185773 -0.059769835
0.06874213 -0.024589367 -0.04130818 -0.08598421 0.06979846 0.014017254 0.041276842 0.038259696
0.036883168 0.048646316 0.017062321 -0.023045601 0.0052171345 -0.082957394 -0.0124347685 0.013610126
-0.08143163 -0.08939469 0.059261464 0.060100596 0.024909982 0.0401998 0.072538115 0.057484392
-0.008055186 -0.027810581 0.0018102333 -0.02098179 0.03261268 -0.07303134 -0.057631865 -0.06560975
-0.0066331793 0.050165042 -0.020688772 -0.08433739 0.020076536 -0.05405315 -0.08928196 -0.075092666
-0.044343807 -0.039623875 0.08585956 -0.043777544 -0.049711045 -0.04413815 0.0381355 -0.059647977
-0.03929412 -0.048174325 0.024965499 -0.016667264

fc3.weight f4 [10, 84]
00000000: 4a57 963d b052 d6bd a916 333c 292b a0bd
00000010: 3432 f5bc c9c9 c33d 9258 ebbc 4586 e93c
00000020: 2daa fabc 9edc 593c e14d 91bd 623c ab3d
00000030: 76e4 913d 7e49 903d 980f ac3d 5c13 c13d
00000040: 3143 bd3d 8017 adbd 9b0f babd fadd b2bd
00000050: 920b 12bd d1c1 c43d 1b61 c7bd 7422 e7bb
00000060: afe3 a6bc 6787 26bd 2ec2 853c 9c24 b1bd
00000070: 787f 0fbd 1d48 9cbd f688 04bb ed55 a63c
00000080: bbbe abbd b0ee d6bc 1b05 06bd 347b b8bc
00000090: ae91 d7bd 5c18 e4bc 5ad7 973d d8e8 90bd
000000a0: 8b2b 91bd 6e4c c03d 0a58 173d c052 cb3d
000000b0: 0432 8abd 212c 9abd 5766 17bc e661 14bc
000000c0: 68bc 9cbc eeec c8bd 30e0 f93b 228e d93d
000000d0: 53b3 b6bd 84cb 04bd a779 ba3c a214 853d
000000e0: c444 d73d 0791 c5bd 3c8a adbd c2df 17bd
000000f0: ee4e db3d f210 093d 6c48 5e3c 5b0f 9c3d
00000100: 84de a0bc 6458 cdbd 3e4a b0bc 2983 383d
00000110: 79ae 50bd a8f9 ed3b c2a0 6a3d 390c cf3d
00000120: e04f ae3c ce4d 7e3d 39a2 8a3c 2cd0 a13c
00000130: aa41 b53d c99a 763d 3743 93bc 97b9 7b3d
00000140: b320 72bd 3843 09bd c81a 27bb 0e42 423d
00000150: 221f db3c 7a87 503c f47f e3bb e85d 153d
00000160: c515 8b3c e39d 013c 7bff ce3d 83c6 9abd
00000170: 5420 7b3d 64d2 0d3d 2f70 76bd caaa 253d
00000180: 6534 af3d 7b2d c03d 44d0 5e3c 64bb 84bd
00000190: c697 debc a06f a33c e393 cabd 8036 aebc
000001a0: 0008 3c3d f465 aabd f226 b13d c97d 99bd
000001b0: 2b88 bd3d 6b9f 273d d1ff 9c3d 7af2 d7bd
000001c0: 8abb ec3c 37b8 cb3d 6ad9 47bc f3fa 8cbb
000001d0: c694 a63d 2a82 ab3d 70ee 073d 2bbe 10bc
000001e0: 4998 66bd 7778 063d fa1b 203c a4d8 503d
000001f0: c572 8ebd 777a b83d 0d1d b4bd 39ad 083c
00000200: 873b d23a 5daa 543d 5b08 c6bd 93f6 933d
00000210: 0d8d 5f3d 82c7 a33d 6383 7cbd d5f6 b23d
00000220: c92b 5c3c fefb 0aba a275 32bd 9cfa ba3c
00000230: fcef c9bd 5224 4b3d e234 0e3d 4916 9dbd
00000240: 7668 aa3d 8412 4ebc 6c18 123d 5a7f 103d
00000250: 31fb c33d 0572 d33d e382 babd 51cc a03d
00000260: 8c88 e23c 8fe3 aebd 451e 39bd 2d4b 7bbd
00000270: b6ee dabd 33e3 b23d 3a50 babd a073 8c3d
00000280: 1adf 9ebd c40b 00bd 6ee1 1e3d f54e 803d
00000290: d665 a43c 08c4 47bc d3ee cbbd 7c92 d9bd
000002a0: e953 a53c 8c3c 8dbd a7ea 9b3d e683 893b
000002b0: f0b6 9abd 589f b93d bbb5 27bd f09f d93d
000002c0: 2496 98bd 713c b23d a298 b7bd a75a 55bd
000002d0: e8fd c2bd ed9d 46bc 5f12 da3d e9b8 c03d
000002e0: 2014 303c 8cdb a8bd da0e b0bd 61ee 823c
000002f0: a8bf 793b a387 9fbd 3c19 2dbd df1e 48bd
00000300: 3a7d 493d d224 ca3c f3d8 193c d4df 9ebd
00000310: fa7e f63c 6cf3 6d3c cb80 b63d 5c77 78bd
00000320: 8c08 80bc 8a85 10bc 38d3 b5bd cb31 7cbc
00000330: 1f0b c239 92f1 d43d 492d 203d 4465 d83d
00000340: baff f43c cc58 8bbd 052b 313d 0778 a7bd
00000350: d15c 5fbd 1d93 bdbd 3303 7c3c 96e0 983d
00000360: 925b 453d 495d bebd a23c a0bd 292d 43bd
00000370: 1c3d da3c 8029 3abd b9c4 91bd da7a cc3c
00000380: 546a ecbc 9ba6 ddbd 5dd9 2abc 8d7a 3e3d
00000390: 87d8 d03d ef83 89bd 5acf 27bd eb66 4c39
000003a0: f273 233c d8ff bebd c47a 923d 88af c63d
000003b0: 8a63 6e3d 3623 0f3c 39ee 03bd 4b4a 563c
000003c0: 5dac 8dbc 554c 8abd 57d6 a5bd fc56 97bd
000003d0: a7b1 3a3d 3ca2 bcbc bab5 b2bd 84ea b13d
000003e0: f428 d33b 903a 81bd 02b9 753d 4ad5 fbbc
000003f0: 8abc 71bd 4fca d3bd 111d 16bd e25d b4bd
0.07340868 -0.1046499 0.010930696 -0.07820732 -0.029931165 0.09559972 -0.028728757 0.028506408
-0.030598724 0.013297228 -0.07094932 0.083611265 0.071236536 0.070452675 0.08401412 0.09427521
0.09241331 -0.08451748 -0.09085008 -0.08733745 -0.035655566 0.0960728 -0.09735318 -0.0070536677
-0.02037224 -0.040656473 0.016327944 -0.08649561 -0.035033673 -0.07630942 -0.0020223237 0.020304644
-0.08385988 -0.026236862 -0.032719713 -0.022519685 -0.10525833 -0.027843647 0.07414122 -0.070756614
-0.07088383 0.09389578 0.036949195 0.09927893 -0.06747821 -0.07527948 -0.009240708 -0.009056544
-0.019132808 -0.09810816 0.007625602 0.10622813 -0.08920922 -0.03242065 0.022763086 0.06498076
0.10511163 -0.096468024 -0.08473632 -0.037078626 0.10708414 0.033463426 0.013567071 0.07620116
-0.019637354 -0.10026625 -0.021519776 0.04504696 -0.05094764 0.0072624274 0.057282217 0.10109753
0.021278322 0.06208592 0.016923057 0.019752584 0.08850415 0.06020621 -0.017976386 0.06145629
-0.059113216 -0.03351137 -0.002549814 0.047426276 0.026748244 0.012727613 -0.0069427434 0.03646651
0.016978154 0.007911178 0.10107323 -0.07557394 0.061310127 0.034624472 -0.06016558 0.04044608
0.08554915 0.09383675 0.013599459 -0.064810544 -0.02717198 0.019950688 -0.098914884 -0.021266222
0.045906067 -0.08320227 0.08650006 -0.07494695 0.092544876 0.040923517 0.076659806 -0.105442956
0.02889802 0.099472456 -0.012197832 -0.0043023764 0.08133845 0.08374436 0.033186376 -0.008834402
-0.056297574 0.032829728 0.009772295 0.050987855 -0.06955484 0.09007733 -0.087946035 0.008342081
0.0016039469 0.051920284 -0.096695624 0.07224765 0.054577876 0.079970375 -0.061648738 0.08738486
0.013438174 -0.0005301832 -0.043569215 0.022824578 -0.098602265 0.049595185 0.0347184 -0.07670266
0.083207056 -0.012577657 0.03566782 0.035277702 0.09569395 0.10324482 -0.09106996 0.0785147
0.027653001 -0.08539497 -0.045194883 -0.06135099 -0.10690062 0.08734741 -0.09097333 0.06857991
-0.07757397 -0.03126122 0.038789205 0.0626506 0.02006809 -0.012192734 -0.099576615 -0.10623643
0.020181613 -0.06896314 0.07613116 0.0041966317 -0.07554424 0.090635955 -0.040944796 0.10626209
-0.07450512 0.087029345 -0.08964659 -0.052088406 -0.09521085 -0.012122613 0.10648035 0.09410269
0.010746986 -0.08245 -0.08596583 0.015982809 0.003810862 -0.077895425 -0.042260394 -0.048857566
0.04919169 0.02467576 0.009390104 -0.077575356 0.030089844 0.014523368 0.08911284 -0.060660705
-0.015629075 -0.008820901 -0.088781774 -0.015392731 0.0003701085 0.103976384 0.039105687 0.1056619
0.029907096 -0.06804046 0.043253917 -0.0817719 -0.054531876 -0.09256575 0.015381622 0.07464711
0.04818303 -0.092951365 -0.07824065 -0.04765049 0.026640467 -0.045449734 -0.071176 0.024960924
-0.028859295 -0.10822793 -0.0104278 0.046503592 0.10197549 -0.067146175 -0.04096923 0.00019493296
0.009976374 -0.09326142 0.07152322 0.09701449 0.058200397 0.008736422 -0.03220961 0.013079236
-0.017294103 -0.067528404 -0.08097523 -0.07389638 0.04557958 -0.023026578 -0.08726068 0.086873084
0.006444091 -0.06309998 0.05999089 -0.030741353 -0.059017695 -0.10341322 -0.036648814 -0.08806969

fc3.bias f4 [10]
00000000: e853 7bbc 301c bd3c 8ee0 3f3d e888 d0bd
00000010: 1e67 633d 0a28 bd3d 5722 933d 6825 88bd
00000020: a9d1 57bd 2cac 303c
-0.015339829 0.02308473 0.04684501 -0.10182363 0.055518262 0.092361525 0.07184284 -0.0664776
-0.052690182 0.0107832365
